…
	Artifact            : 51341
[2020-07-22 21:20:14,174] {dataloader:107} INFO - data distribution in database for dataset valid:
	Wake                : 28382
	REM                 : 2544
	Non REM             : 19952
	Pre REM             : 752
	Artifact            : 510
[2020-07-22 21:20:14,178] {dataloader:134} INFO - data distribution after processing:
	Wake                : 28382
	REM                 : 2544
	Non REM             : 19952
	Pre REM             : 752
	Artifact            : 510
[2020-07-22 21:20:16,139] {run_experiment:47} INFO - classifier:
Model(
  (feature_extractor): Sequential(
    (0): BatchNorm1d(1, eps=1e-05, momentum=0.1, affine=True, track_running_stats=True)
    (1): Conv1d(1, 96, kernel_size=(5,), stride=(1,))
    (2): LeakyReLU(negative_slope=0.01, inplace=True)
    (3): BatchNorm1d(96, eps=1e-05, momentum=0.1, affine=True, track_running_stats=True)
    (4): Dropout(p=0.0, inplace=False)
    (5): Conv1d(96, 96, kernel_size=(5,), stride=(2,))
    (6): LeakyReLU(negative_slope=0.01, inplace=True)
    (7): BatchNorm1d(96, eps=1e-05, momentum=0.1, affine=True, track_running_stats=True)
    (8): Dropout(p=0.2, inplace=False)
    (9): Conv1d(96, 96, kernel_size=(5,), stride=(1,))
    (10): LeakyReLU(negative_slope=0.01, inplace=True)
    (11): BatchNorm1d(96, eps=1e-05, momentum=0.1, affine=True, track_running_stats=True)
    (12): Dropout(p=0.0, inplace=False)
    (13): Conv1d(96, 96, kernel_size=(5,), stride=(2,))
    (14): LeakyReLU(negative_slope=0.01, inplace=True)
    (15): BatchNorm1d(96, eps=1e-05, momentum=0.1, affine=True, track_running_stats=True)
    (16): Dropout(p=0.2, inplace=False)
    (17): Conv1d(96, 96, kernel_size=(5,), stride=(1,))
    (18): LeakyReLU(negative_slope=0.01, inplace=True)
    (19): BatchNorm1d(96, eps=1e-05, momentum=0.1, affine=True, track_running_stats=True)
    (20): Dropout(p=0.0, inplace=False)
    (21): Conv1d(96, 96, kernel_size=(5,), stride=(2,))
    (22): LeakyReLU(negative_slope=0.01, inplace=True)
    (23): BatchNorm1d(96, eps=1e-05, momentum=0.1, affine=True, track_running_stats=True)
    (24): Dropout(p=0.2, inplace=False)
    (25): Conv1d(96, 96, kernel_size=(5,), stride=(1,))
    (26): LeakyReLU(negative_slope=0.01, inplace=True)
    (27): BatchNorm1d(96, eps=1e-05, momentum=0.1, affine=True, track_running_stats=True)
    (28): Dropout(p=0.0, inplace=False)
    (29): Conv1d(96, 96, kernel_size=(5,), stride=(2,))
    (30): LeakyReLU(negative_slope=0.01, inplace=True)
    (31): BatchNorm1d(96, eps=1e-05, momentum=0.1, affine=True, track_running_stats=True)
    (32): Dropout(p=0.2, inplace=False)
  )
  (classifier): Sequential(
    (0): Dropout(p=0.2, inplace=False)
    (1): Linear(in_features=10848, out_features=80, bias=True)
    (2): BatchNorm1d(80, eps=1e-05, momentum=0.1, affine=True, track_running_stats=True)
    (3): LeakyReLU(negative_slope=0.01, inplace=True)
    (4): Dropout(p=0.2, inplace=False)
    (5): Linear(in_features=80, out_features=5, bias=True)
  )
)
[2020-07-22 21:20:56,291] {train_model:70} INFO - Train Epoch: 1 [36352/366720 (10%)]	lr:2.56e-05	Loss: 3.615203
[2020-07-22 21:21:35,861] {train_model:70} INFO - Train Epoch: 1 [72960/366720 (20%)]	lr:2.56e-05	Loss: 2.938493
[2020-07-22 21:22:15,409] {train_model:70} INFO - Train Epoch: 1 [109568/366720 (30%)]	lr:2.56e-05	Loss: 2.691839
[2020-07-22 21:22:54,908] {train_model:70} INFO - Train Epoch: 1 [146176/366720 (40%)]	lr:2.56e-05	Loss: 2.528140
…
